resultserdos_mpnn1_neighbaggr_sum_hidden_32_0/mpnn.pt (torch_old, 14575 bytes, 6 tensors)

mps.node_proj.0.weight f4 [32, 2]
00000000: e6ab bdbc a10c e13c 647c 89bc da4e 5e3d
00000010: 3384 3abc c590 c53c e969 efbb 9cfa 55bc
00000020: f37b 6bbc eb8d 283d abb6 10be 4dc8 933e
00000030: 6bea 443d 671a a6bd c92d c9bc 1cc2 0c3d
00000040: 4f42 34bd 5419 d73d e69e b2b9 1cfc f53c
00000050: 51da 23bb a31f c93a c5d8 babc 5c14 bb3c
00000060: 2984 87bc 1f8c 27bd 3cb0 d3bb 59cf e43c
00000070: f5cc 5dbb 5983 e8bb 5e5e 4ebc bc3d 0b3d
00000080: cc5e 85bd 24f7 173e 3bce 29bd 746a 0b3e
00000090: 4ce7 ddbb 5d77 d63c 532e 6ebc d027 593d
000000a0: 33be f6be aac3 e53e e0b5 18bc 6c4b 6e3e
000000b0: 7349 80ba 9903 313b f8be 1cba e493 bc3b
000000c0: 46f7 33bc c3f4 183d c137 c5b9 6a54 2c3b
000000d0: 3a5b 60be daa9 d33e 3d9b 83bc a199 6a3d
000000e0: 5d2f 16bc 58a2 413c dd7b 2abc fbfe b53c
000000f0: 17c0 c2bc 225b 9e3d d698 21bd 551d 123e
-0.023153257 0.027471842 -0.016782947 0.054274417 -0.011384058 0.024116883 -0.0073063266 -0.013060238
-0.0143728135 0.04115097 -0.14132182 0.28863755 0.04807512 -0.081105046 -0.024557965 0.034364805
-0.04400855 0.10502878 -0.00034069194 0.030027442 -0.0025001953 0.0015344511 -0.022808442 0.022836857
-0.016542511 -0.040905114 -0.0064602178 0.027930902 -0.0033844088 -0.007095736 -0.012595741 0.03399442
-0.06512222 0.1484037 -0.041456442 0.13614827 -0.0067719575 0.026179964 -0.014537412 0.053016484
-0.48191985 0.44875842 -0.009320706 0.23270959 -0.0009787515 0.00270102 -0.00059793843 0.0057549346
-0.010984248 0.037342798 -0.00037616308 0.0026295432 -0.219098 0.41340524 -0.016065234 0.05727542
-0.009166566 0.011818491 -0.010405508 0.02221631 -0.023773236 0.07732226 -0.039452396 0.14269002

mps.edge_proj.weight f4 [32, 2]
00000000: bd6c 29bd 0098 c1be 0f18 30bf 62c8 33bf
00000010: 692f 063f 9a7a e4be 66a8 8bbe 2b8f 143c
00000020: f729 773b 1a49 023d c737 27be 7233 2dbe
00000030: d2bf 0dbf e663 773e ad7e 2fbf 3259 fd3e
00000040: 06fa 9d3d fa95 b0be 2ea6 d13e e70a c73e
00000050: d4f2 153f 1b36 cfbe c9ad 163f 9554 f23e
00000060: 6478 92be 8851 de3e 3533 433d ba08 d63e
00000070: eaaf 143f 24a0 1a3f 0eb3 06be 88cd 26bf
00000080: 0b41 bcbd 89cc 27bf 6679 d8be f8ad df3e
00000090: c873 b33e 830c 873e 38b5 2ebf 68cd 863e
000000a0: c9ef 213f fd44 023f 74fa 863e 4327 433f
000000b0: 299d 1d3f 3f92 dbbd 19d6 8cbe 7fee f3bd
000000c0: de6b f7bd 29cf 2abe 8947 95be 6c56 4abe
000000d0: f435 82be 37eb 29bf 7239 8f3e 54da 7dbe
000000e0: 26aa 8a3e d2f7 5c3c cb01 7ebe 9cda b8be
000000f0: c432 e43e e160 aabe 2b7b 4bbf fccc d1be
-0.041363467 -0.3781128 -0.6878671 -0.70227635 0.5241609 -0.44624788 -0.27276915 0.009067337
0.0037714222 0.031807996 -0.16329871 -0.16914156 -0.5537082 0.24159202 -0.68552667 0.49482113
0.07713704 -0.34489423 0.40947098 0.38875505 0.5857365 -0.40470967 0.58858925 0.47330156
-0.28607476 0.43421578 0.047656257 0.41803533 0.58080924 0.60400605 -0.13154241 -0.65157366
-0.091920935 -0.6554647 -0.4228012 0.43687415 0.35049272 0.26376733 -0.6824527 0.26328588
0.6325651 0.5088652 0.26362956 0.76231784 0.6156793 -0.107212536 -0.27507094 -0.11910724
-0.12081121 -0.16680588 -0.2915614 -0.1975953 -0.25431788 -0.66374534 0.27973515 -0.24790317
0.27082938 0.013486819 -0.24805371 -0.36104286 0.4456998 -0.33277038 -0.79484814 -0.40976703

mps.edge_proj.bias f4 [32]
00000000: f106 373f da0b 99be 7970 f23e 8b58 babe
00000010: aac5 61bf 73a0 da3e b630 0ebd ef90 193e
00000020: d0cb 05bf 3539 403e 71af 04be 2977 b7be
00000030: 2de3 b5be f353 d83e 9dbc 163f a615 3cbf
00000040: 76e6 563e ff7d 10bf 09fc 943e cec8 e7be
00000050: ebdc 903e b8ba 86be f5c4 083f e884 1d3f
00000060: 1a6c 70be 6d0e 983e c578 84be 8aca 4a3e
00000070: fe3b 183f 051a ed3d c0d3 cdbc b304 f1be
0.71494967 -0.29891855 0.47351435 -0.36395678 -0.88192236 0.42700538 -0.034714423 0.14996694
-0.5226412 0.18771823 -0.1295755 -0.358331 -0.35524884 0.42251548 0.5888155 -0.7347053
0.20986351 -0.56442255 0.29098538 -0.4527039 0.28293547 -0.2631433 0.5342553 0.61530924
-0.23478737 0.29698506 -0.2587339 0.19803825 0.5946654 0.115772285 -0.025125384 -0.47073898

mps.message_proj1.weight f4 [32, 96]
00000000: f71b 303c c021 793d 15ee f73d 3a71 b6bc
00000010: 5694 b13d a0a1 8dbb d6bd 42bd c90d 5e3d
00000020: bf57 c33d ce94 2fbd f37e c0bd 0579 aabc
00000030: 93c8 8fbd d1f3 ae3c 35e5 90bd 0e0f fc3c
00000040: 1391 7bbd d131 5fbd 2735 7c3d bbfe 83bc
00000050: f880 863d a42c bfbd 5d33 603d 7043 80bd
00000060: d406 a4bd c6f1 863d 0dfc 1339 da43 433d
00000070: dad1 80bc 4381 033d c524 ab3c b1a2 31bd
00000080: ecde bfbd dccc 00bd 4088 b53d a42c 6cbc
00000090: 4d8e 33bd b5a9 083e f7e0 3fbd d68c 433c
000000a0: 7fcc 993c f7b5 d43d 7808 6ebd 2a84 a5bc
000000b0: f32f d8bc f457 cb3d c17c c6bd 626d 833d
000000c0: 2eb1 073e 599c ccbd df31 12bd 9705 5d3d
000000d0: 62f3 1d3d 63fb c2bd 2258 2b3c 8b4e 203d
000000e0: ea42 7a3b ac85 bdbc 3027 a53c 022f aebd
000000f0: 099a 2dbd 49b3 84bd 3d1f 933d 45b2 833d
00000100: ffb5 813c df7a 3c3d 43f5 c1bd 0fd4 cd3d
00000110: 87bd ff3d 326c 003d c244 61bd 2d3f 6ebc
00000120: e5d9 b9bc 318c 6c3c ae83 80bd 05df a5bc
00000130: 45e2 09bd fe4c c9bc 3382 313d 4ba0 ed3d
00000140: 9762 b03d e6d3 183c 6b21 4a3d ea5c 98bb
00000150: c592 38bd 1607 0b3d 15d4 2d3d 2e56 8e3c
00000160: 86cb 9dbc ca21 ab3d 2cd4 88bc 0ff8 0ebd
00000170: e37b 1dbd 77e4 bd3d a5d6 303d 45fa 6dbd
00000180: 2d70 ea3d 34a7 b2bd 965c 4b3d ec8a c43c
00000190: 7b3e 02bd f680 a7bd f78f 0dbd 2740 ee3c
000001a0: 195e 9fbb b28c 69bd aa51 81bc 7a63 95bd
000001b0: fe8e 243c 02d0 8bbd 4361 6c3d 8388 673d
000001c0: 92dc 833d e2af bbbc b392 243d 09f1 3a3d
000001d0: 4ee8 dc3d 9423 68bd 73c0 6ebd 3bea a53c
000001e0: 2828 2cbd 46c3 823d 3a38 aebc 00c7 cbbc
000001f0: 3223 5d3d d598 babd 3552 343d bf44 9bbd
00000200: 355d 87bd 48c0 923d fb29 ac3c 2ac3 073d
00000210: 850f d93d 5d86 f03d 81a8 d5bd e34f 0fbd
00000220: 16d5 b8bc aaaa cdbd 7f49 e03c 7624 cfbc
00000230: 2ec2 6bbd d646 c13d 1572 d03d 7cfb 85bd
00000240: 15a5 a43c 4439 e4bc ae50 f8bc 5b86 803d
00000250: f741 753d 1b53 8e3d 906d 723d 1742 a1bb
00000260: f55d b9bd 7b52 743d d2b6 03bd 7cf6 5abd
00000270: baf3 f9bc 8cc9 dc3d c5a0 553d 262b b53d
00000280: 7623 61bd 9092 1ebd bb4d 813d 2327 3e3d
00000290: 1148 043e 8dd7 bcbd 1c1c 5fbd 1ef6 27bd
000002a0: 9223 013e 7752 e0bd a289 873c 23ee c7bd
000002b0: dbfa 013e 9f28 383d c5b3 193c 563a c73d
000002c0: d4b2 b8bc f4e4 923d 60f2 b1bd cc42 d33d
000002d0: 2a8a 9dbd 0930 a0bd 2c57 b2bd fdc4 4d3d
000002e0: 3b6a ec3d 4323 d2bc aca8 a73d ae7d de3d
000002f0: ac53 01be 2fdb 54bc e630 493d 05a5 1bbd
00000300: e3cb acbd 17ad 663d 786b b13d 8abe 1abd
00000310: 94c1 a93d 0435 903b 40d9 6b3c 6929 1d3c
00000320: 1112 bdbd eaa7 973d d873 dcbd 70e5 273d
00000330: ba6d c33c 0599 a9bc 2971 4a3d be25 803d
00000340: e87e a9bd e51c d0bc 6c9d 303d 6d00 d1bd
00000350: 42b7 933c 2409 a8bd 6fda 4a3c 5de2 d5bd
00000360: 0aaf 943c bfe8 55bc 3f03 c3bb 5128 a13b
00000370: fde1 5f3d 1440 9a3d a4e1 9d3d d44c ea3d
00000380: 678d 53bd c2a3 1a3d 456d a73d df36 933d
00000390: 1f48 a73d 10d0 b73d fee1 6ebd 09fd 4cbc
000003a0: fa09 283d e31d af3d 21f1 8cbd dcd7 d5bc
000003b0: d031 f1bb ebda b0bc 0601 223d 1983 973c
000003c0: 0d21 623d f84d 9d3d a9ec 663a cc98 5f3d
000003d0: d0a9 ae3d 5d85 013d acae ac3c 8566 693c
000003e0: 39df 88bd 9595 6bbd 3c61 f43d 1f1f 573b
000003f0: aea0 193d a659 b53d 19fc 7fbd 152a bf3c
0.010748855 0.060823202 0.121059574 -0.022270788 0.08670871 -0.0043222457 -0.047544323 0.054212365
0.095382206 -0.04286652 -0.09399214 -0.02080966 -0.07020678 0.021356495 -0.07074968 0.030768897
-0.06141765 -0.054490868 0.061574128 -0.016112676 0.065675676 -0.093346864 0.054736484 -0.06262863
-0.08009115 0.065890834 0.00014112909 0.04767213 -0.015725065 0.032105695 0.020891557 -0.043368045
-0.09368691 -0.03144537 0.08863878 -0.01441494 -0.04383688 0.13345988 -0.046845403 0.011935433
0.01877427 0.103862695 -0.058113545 -0.020204622 -0.026390051 0.09928885 -0.09691764 0.064173475
0.13251182 -0.099907584 -0.035692092 0.05396041 0.038562186 -0.095206045 0.010458024 0.039137404
0.0038186857 -0.023135029 0.020160288 -0.0850506 -0.042383227 -0.064795084 0.071836926 0.064304866
0.015833853 0.046015617 -0.09470608 0.100502126 0.12487321 0.031353183 -0.054997213 -0.0145414295
-0.022686908 0.014437721 -0.06275116 -0.020247946 -0.033663053 -0.024572846 0.04333706 0.11602839
0.086125545 0.009327864 0.049348276 -0.004649748 -0.045061845 0.033942305 0.042438585 0.017375078
-0.019262087 0.08356054 -0.016702734 -0.034904536 -0.038448226 0.09272092 0.04317345 -0.058100004
0.11447177 -0.08723298 0.049648844 0.023992024 -0.031797867 -0.08178894 -0.034561124 0.029083325
-0.0048635122 -0.057018943 -0.01578601 -0.07294364 0.010043858 -0.06826784 0.057709944 0.056526672
0.06438555 -0.022911016 0.040178966 0.045640025 0.10786496 -0.056674555 -0.058289003 0.020253291
-0.042030483 0.06384902 -0.021267045 -0.024875164 0.053988643 -0.09111182 0.04402371 -0.07581472
-0.06609575 0.07165581 0.021016112 0.033145107 0.10598663 0.11744378 -0.1043253 -0.034988295
-0.022562545 -0.10042317 0.027378796 -0.02528594 -0.05755823 0.09437339 0.101780094 -0.065421075
0.020098248 -0.027859338 -0.030311909 0.06275626 0.059877362 0.06949445 0.05918652 -0.0049212086
-0.09051124 0.059648972 -0.032156773 -0.053457722 -0.030511726 0.107806295 0.052155275 0.088461205
-0.05496546 -0.03871399 0.06313654 0.046424042 0.12918116 -0.092208005 -0.054470167 -0.0410062
0.12611225 -0.10953229 0.01654512 -0.09762218 0.1269335 0.044960614 0.009381239 0.097279236
-0.02254621 0.071725756 -0.086888075 0.10315475 -0.07692368 -0.07821662 -0.08708033 0.05023669
0.11543699 -0.02565158 0.081864685 0.10863815 -0.12629575 -0.012991711 0.0491189 -0.03799917
-0.08437326 0.056317415 0.08663076 -0.03777937 0.08288875 0.004400851 0.014395058 0.0095923925
-0.092319615 0.07405074 -0.10764283 0.040990293 0.023856033 -0.020702848 0.049424324 0.06257199
-0.082761586 -0.025404403 0.04311888 -0.10205159 0.01803172 -0.082048684 0.01238118 -0.10443566
0.018149871 -0.013055979 -0.0059513147 0.004918136 0.05465888 0.07531753 0.07709053 0.11440435
-0.051648524 0.037753828 0.081751384 0.071882 0.08168053 0.08975232 -0.05832099 -0.0125115
0.04102514 0.08550622 -0.06881929 -0.026103906 -0.0073606744 -0.021588763 0.039551757 0.01849513
0.0552073 0.07680887 0.0008809069 0.054589078 0.08528483 0.031621326 0.021079384 0.014245634
-0.06683201 -0.0575157 0.119326085 0.0032824946 0.03750675 0.0885499 -0.06249628 0.023335496

mps.message_proj1.bias f4 [32]
00000000: f5ae 283d be3f 473d def6 7c3d 8540 38be
00000010: 3a37 38bd dab9 183d 8915 3dbd 36a2 873c
00000020: d440 3a3c 6d84 ac3c 780b f9bc ad61 783c
00000030: 897c b5bd 1dfc 94bc cf2a 083c 602c 18bd
00000040: 50bc 113d ef54 993c f6ef dfbd bd7b 10bd
00000050: 2271 cfbc 3def 91bd a41e c2bd 676f 7fbd
00000060: ab08 8e3d 369b babd fb93 da38 c554 b7bd
00000070: 5730 13be 8ef6 e8bd 4b14 253c 0168 893c
0.041182477 0.048644774 0.06175887 -0.17993362 -0.044974543 0.037286617 -0.046163116 0.01655684
0.011367995 0.02105924 -0.030400977 0.0151600065 -0.08861644 -0.018186623 0.008310988 -0.037151694
0.03557998 0.018717257 -0.10934441 -0.035274256 -0.0253225 -0.07125709 -0.094785005 -0.0623621
0.06935247 -0.091116354 0.000104226136 -0.089517154 -0.14373909 -0.113751516 0.010075639 0.016773226

fc.weight f4 [1, 32]
00000000: 40e6 cf3b 6884 92bb 2d72 4e3a 5c3f 883a
00000010: e7c0 15bb 6638 1b3c dcbd 97bc fb26 cd3b
00000020: f17b b13a 6e2f 01bc 9d72 583a d4ca 363c
00000030: 5fef 933b dd8a 4fbb 5fb5 af3a ed58 13ba
00000040: e388 7cb9 1f3b a6bb 3dc4 3bbb ef27 b6bb
00000050: 34b9 3d3e d132 3cbd 333b cdb7 a669 d1b9
00000060: bc3d 83bb 700e 38b9 073f 063d b10e 2dbb
00000070: ce7d 463a a3f9 4a39 bf43 98bb f4d9 05bc
0.0063445866 -0.0044713505 0.000787529 0.0010394859 -0.0022850574 0.009473896 -0.01852315 0.0062607503
0.0013540966 -0.007884843 0.0008256825 0.011156756 0.0045146192 -0.0031668462 0.0013405493 -0.0005620856
-0.00024083587 -0.0050729658 -0.0028650903 -0.0055589597 0.1852768 -0.0459469 -2.4465471e-05 -0.000399423
-0.004005162 -0.00017552986 0.03277495 -0.0026406462 0.0007571847 0.00019357218 -0.004646748 -0.00816964
