resultserdos_mpnn1_neighbaggr_sum_hidden_32_1/mpnn.pt (torch_old, 14575 bytes, 6 tensors)

mps.node_proj.0.weight f4 [32, 2]
0.44716585 -0.044332128 -0.0590574 0.16773629 0.050660755 0.25940803 -0.13289528 -0.33170134
0.119422406 -0.03372376 0.25916424 -0.11958188 0.21295604 -0.033172626 -0.055235527 -0.09263625
0.042619642 0.013902337 -0.15399574 -0.32643002 0.36770532 -0.046513308 -0.07823366 -0.3027793
0.07655658 0.007662121 -0.022143865 0.16099253 0.23960458 0.12076134 -0.03668334 -0.13048042
-0.25079334 0.5917864 -0.10045735 0.25511637 -0.26993054 -0.4139618 0.0857418 -0.054749407
0.02875647 0.43597087 0.14758973 -0.07864311 0.23827337 -0.05064171 0.03521742 -0.0010462501
-0.4052039 0.55432326 -0.009055643 -0.03054492 0.0019170354 0.00093866326 -0.4219509 -0.65736604
-0.22598688 -0.19790015 0.12378662 0.3086378 -0.04417603 0.124926776 0.14039105 0.05441311
00000000: ecf2 e43e 9b95 35bd 2ce6 71bd 10c3 2b3e
00000010: a781 4f3d 21d1 843e b315 08be c2d4 a9be
00000020: bc93 f43d ed21 0abd 2db1 843e 58e7 f4bd
00000030: 2611 5a3e 05e0 07bd a63e 62bd 13b8 bdbd
00000040: ef91 2e3d a1c6 633c 0fb1 1dbe d621 a7be
00000050: df43 bc3e bd84 3ebd f838 a0bd e305 9bbe
00000060: b2c9 9c3d 8812 fb3b 0d67 b5bc 3adb 243e
00000070: e75a 753e b951 f73d 4541 16bd a99c 05be
00000080: fc67 80be 507f 173f 95bc cdbd 9d9e 823e
00000090: 5634 8abe cdf2 d3be 6699 af3d ea40 60bd
000000a0: b092 eb3c 9337 df3e c321 173e a40f a1bd
000000b0: effd 733e af6d 4fbd 2440 103d 5422 89ba
000000c0: e376 cfbe 21e8 0d3f 1f5e 14bc 5739 fabc
000000d0: 0945 fb3a a010 763a f309 d8be 2449 28bf
000000e0: 1b69 67be 56a6 4abe d783 fd3d c605 9e3e
000000f0: edf1 34bd 9cd9 ff3d acc2 0f3e 48e0 5e3d

mps.edge_proj.weight f4 [32, 2]
-0.3210079 0.16709657 -0.40908766 -0.08559613 -0.5665039 -0.3481053 0.26976424 0.4143719
-0.24921663 -0.13784905 -0.6012664 -0.31335816 0.37175867 -0.29782903 -0.39178076 0.6163525
0.31601092 0.11851827 -0.63837457 0.014793812 -0.109591685 -0.40079713 -0.3801354 0.27120763
-0.17047003 0.47629383 0.25070772 -0.13035575 -0.3507395 -0.41104308 0.63781226 -0.5116042
-0.19410191 0.16884957 -0.46660036 -0.6215593 0.71370006 0.3778426 0.12195443 -0.3800213
0.53477395 0.022247938 0.32790318 -0.4795498 0.17751794 -0.19521369 -0.6086544 0.017357418
0.24726298 0.38002798 -0.15882798 -0.35972884 -0.5915349 0.09437378 -0.09825471 -0.22599447
0.005113822 0.20916267 0.46245277 -0.41380504 -0.39461046 0.5736319 0.47517294 0.032671142
00000000: 265b a4be 5d1b 2b3e f073 d1be 064d afbd
00000010: 6606 11bf dc3a b2be 8a1e 8a3e 8e28 d43e
00000020: a532 7fbe 4d28 0dbe 98ec 19bf 7b70 a0be
00000030: 2757 be3e 0c7d 98be 7d97 c8be 47c9 1d3f
00000040: 2fcc a13e b5b9 f23d 846c 23bf bf61 723c
00000050: 9b71 e0bd 4835 cdbe 1ba1 c2be badb 8a3e
00000060: b28f 2ebe c9dc f33e c35c 803e fa7b 05be
00000070: 2194 b3be 3d74 d2be aa47 233f 7ef8 02bf
00000080: a7c2 46be e7e6 2c3e 3ee6 eebe 831e 1fbf
00000090: 0cb5 363f 9674 c13e 3fc3 f93d 2792 c2be
000000a0: f2e6 083f 4f41 b63c ede2 a73e 8d87 f5be
000000b0: 43c7 353e 19e6 47be c6d0 1bbf 2531 8e3c
000000c0: 8232 7d3e 0793 c23e cda3 22be 612e b8be
000000d0: d56e 17bf 0a47 c13d c439 c9bd 186b 67be
000000e0: d991 a73b bd2e 563e 9cc6 ec3e 41de d3be
000000f0: 620a cabe 8ad9 123f de49 f33e 2dd2 053d

mps.edge_proj.bias f4 [32]
0.47589695 -0.5525201 -0.16331522 -0.13834378 -0.4372535 0.2157708 -0.6471275 0.4672787
0.08169645 -0.54948294 0.4787345 0.52296716 -0.039854363 -0.0155490665 0.05040927 -0.5135655
0.50640506 -0.46684465 -0.5635794 -0.10104382 -0.3785575 -0.57570463 -0.52790654 0.52818733
0.6327039 -0.37857142 0.4845517 -0.33408275 0.1743942 -0.39664426 0.4891395 0.3091703
00000000: c4a8 f33e f571 0dbf 1b3c 27be fea9 0dbe
00000010: b1df dfbe 05f3 5c3e 26aa 25bf 273f ef3e
00000020: 7850 a73d eaaa 0cbf b01c f53e 2de1 053f
00000030: 543e 23bd 83c1 7ebc f379 4e3d 0779 03bf
00000040: c3a3 013f 4306 efbe bd46 10bf 10f0 cebd
00000050: 4ad2 c1be 6161 13bf e224 07bf 4937 073f
00000060: e2f8 213f 1dd4 c1be 2917 f83e e50c abbe
00000070: 6594 323e f514 cbbe 7e70 fa3e 924b 9e3e

mps.message_proj1.weight f4 [32, 96]
0.02964378 -0.046581637 0.037384238 0.0014840572 0.0020647252 -0.01620745 0.035750624 0.0010378589
-0.069837004 0.06821597 0.060957428 0.07924905 0.01515485 -0.047712464 0.055276193 -0.100615874
0.05812503 0.05600993 -0.09888878 0.07355246 0.10056875 -0.02215093 -0.08942187 0.080868535
0.12721282 0.041167177 0.0022128602 0.014837727 0.04397512 -0.011622026 0.06254102 0.0049086325
-0.10354421 -0.049764175 0.047684915 0.012689072 0.02993758 -0.046751194 -0.048027795 -0.008109904
-0.0498565 0.064798385 -0.042654984 -0.121562354 0.118976586 -0.018851083 0.011552346 -0.1314277
0.10754477 0.03663825 0.04243262 -0.05491179 0.060450606 -0.0709091 -0.011662263 -0.007276406
0.04875863 -0.11733802 0.06787672 -0.053478688 -0.12697715 0.124672115 0.079740085 -0.019051487
-0.08810473 -0.017361725 0.11731967 0.023912009 0.08138657 -0.07496092 -0.053120725 -0.10619386
-0.014981738 0.014910963 -0.04344398 0.054566417 -0.108313166 -0.0320213 0.081061445 -0.03725178
-0.028802203 0.016708577 -0.009070145 -0.004300771 0.08817503 0.10019263 -0.07020695 -0.0949595
-0.103709176 0.028790193 -0.00049514713 -0.0065964097 0.018895658 0.034571406 -0.008112274 -0.03678081
-0.070341304 -0.0044318093 -0.071451716 0.09704432 -0.05360473 0.014926439 -0.047397185 0.069011025
-0.03597345 -0.001872184 -0.06951699 -0.015721092 0.011721233 0.024109589 -0.0003227614 -0.0479482
0.015537021 0.050613467 -0.033805963 -0.049146924 0.06054893 -0.020194352 0.033456042 0.074850366
-0.09527067 0.06187993 0.072881676 0.059502423 -0.00635006 0.06444914 0.07317594 0.028661106
0.060150478 0.08942953 -0.06357974 0.06252982 0.029041782 0.067567155 -0.011906531 -0.069124445
-0.02041222 0.084363475 -0.013973855 -0.07014236 0.054122597 0.069772676 0.014939778 -0.03467516
-0.008812027 0.0017717824 -0.013442642 0.025198972 -0.035984147 0.056914166 0.021619605 0.10301793
0.06845208 -0.12382049 -0.0237432 0.036279835 -0.014440172 -0.04014606 -0.0056791846 -0.06934527
0.012204159 0.09154178 -0.031781536 -0.078068614 0.02486951 -0.102846526 0.032574493 0.010507323
-0.107006215 -0.0138964355 -0.07975491 -0.07068716 -0.107837565 0.06958265 -0.03577364 -0.034096032
0.03540603 -0.036079638 0.009840151 0.08380546 -0.04144942 0.001999327 0.107507296 -0.05302709
0.026345257 0.07416318 0.021470742 -0.07566615 0.067459345 0.07721899 -0.059551757 -0.11196249
0.06089806 0.040830757 -0.11035636 0.11729428 0.0027320066 -0.06097965 0.05760038 -0.03474527
0.035986133 -0.047908373 -0.019369764 0.0005697379 -0.008733819 -0.0031861993 -0.07690685 0.006527619
0.004201014 0.07410381 -0.06473321 -0.12192568 -0.027838735 0.016162202 0.013886061 -0.12146363
0.0029402578 -0.0013218656 -0.10662236 0.09631723 0.1175792 0.07033454 0.109026216 -0.089898184
-0.11674108 -0.019644475 -0.08792088 -0.019602135 -0.011086619 0.029491799 -0.07163632 0.09222406
0.03922642 -0.04139989 -0.07294467 -0.059035186 -1.2233527e-05 -0.035064857 -0.07008688 -0.030174239
0.038794056 -0.044970367 0.01044982 -0.012219251 -0.0073878607 -0.12954219 -0.009670599 -0.09928555
0.06823838 -0.050450232 -0.011590995 0.093183525 -0.043954156 -0.075809576 -0.11100133 -0.08414839
00000000: 83d7 f23c 63cc 3ebd 3720 193d b284 c23a
00000010: 5750 073b 7cc5 84bc 3f6f 123d c408 883a
00000020: b406 8fbd d1b4 8b3d 7fae 793d 534d a23d
00000030: 0c4c 783c 256e 43bd 4a69 623d b20f cebd
00000040: 8314 6e3d ab6a 653d 3386 cabd aca2 963d
00000050: fdf6 cd3d de75 b5bc d022 b7bd 679e a53d
00000060: 1444 023e ea9e 283d a205 113b f019 733c
00000070: 411f 343d 4f6a 3ebc 8215 803d 98d8 a03b
00000080: fd0e d4bd 85d5 4bbd 4251 433d d3e5 4f3c
00000090: a83f f53c 2e7e 3fbd cbb8 44bd 67df 04bc
000000a0: 5436 4cbd 04b5 843d feb6 2ebd aff5 f8bd
000000b0: ffa9 f33d 966d 9abc 0d46 3d3c fc94 06be
000000c0: 6f40 dc3d fd11 163d d4cd 2d3d 2feb 60bd
000000d0: 0e9b 773d ca38 91bd 1413 3fbc eb6e eebb
000000e0: 21b7 473d ea4e f0bd f302 8b3d 780c 5bbd
000000f0: 4c06 02be 1854 ff3d c54e a33d dd11 9cbc
00000100: 4170 b4bd 2d3a 8ebc 4c45 f03d 1ee3 c33c
00000110: 01ae a63d 1c85 99bd 1e95 59bd 2b7c d9bd
00000120: f775 75bc 1d4d 743c 51f2 31bd 0981 5f3d
00000130: 4bd3 ddbd c428 03bd 8b03 a63d 5395 18bd
00000140: 99f2 ebbc 6de0 883c f29a 14bc 7bed 8cbb
00000150: 1c95 b43d cb31 cd3d a9c8 8fbd 207a c2bd
00000160: 7a65 d4bd 69d9 eb3c c3cc 01ba b226 d8bb
00000170: 11cb 9a3c bf9a 0d3d 58e9 04bc 7aa7 16bd
00000180: 1a0f 90bd b638 91bb 4755 92bd 2cbf c63d
00000190: a290 5bbd 068e 743c 8d23 42bd a755 8d3d
000001a0: e558 13bd 1264 f5ba ec5e 8ebd 85c9 80bc
000001b0: 6a0a 403c 7981 c53c 4d38 a9b9 5565 44bd
000001c0: fd8e 7e3c 1150 4f3d 1f78 0abd 494e 49bd
000001d0: 2802 783d a06e a5bc 3409 093d 264b 993d
000001e0: 451d c3bd cf75 7d3d fd42 953d d0b8 733d
000001f0: 2a14 d0bb e9fd 833d 44dd 953d b2ca ea3c
00000200: 5960 763d d426 b73d 1836 82bd a20f 803d
00000210: 08e9 ed3c a660 8a3d 9c13 43bc 1e91 8dbd
00000220: 8737 a7bc c2c6 ac3d 99f2 64bc cca6 8fbd
00000230: a8af 5d3d fae4 8e3d f8c5 743c 8a07 0ebd
00000240: 5260 10bc 273b e83a 873e 5cbc 136e ce3c
00000250: 1d64 13bd d41e 693d 991b b13c 11fb d23d
00000260: 9b30 8c3d 9995 fdbd 1981 c2bc 2a9a 143d
00000270: 7996 6cbc 3270 24bd 7418 babb e504 8ebd
00000280: f4f3 473c 427a bb3d 5b2d 02bd 70e2 9fbd
00000290: 25bb cb3c 33a1 d2bd d56c 053d e826 2c3c
000002a0: 1326 dbbd e0ad 63bc 8b56 a3bd 6ec4 90bd
000002b0: f1d9 dcbd 5981 8e3d 6187 12bd 48a8 0bbd
000002c0: ea05 113d 3ec8 13bd 9638 213c 32a2 ab3d
000002d0: dec6 29bd 2407 033b c92c dc3d ef32 59bd
000002e0: 02d2 d73c dee2 973d 69e3 af3c dbf6 9abd
000002f0: 2028 8a3d fd24 9e3d 8bec 73bd 974c e5bd
00000300: 3f70 793d 273e 273d 8402 e2bd fc37 f03d
00000310: 770b 333b ccc5 79bd 60ee 6b3d 0e51 0ebd
00000320: 3266 133d 923b 44bd 57ad 9ebc 775a 153a
00000330: 4b18 0fbc 8ecf 50bb 5781 9dbd a3e5 d53b
00000340: a9a8 893b bdc3 973d d892 84bd 2cb4 f9bd
00000350: 0f0e e4bc 9866 843c 5c82 633c ecc1 f8bd
00000360: 57b1 403b 7342 adba d35c dabd f841 c53d
00000370: 5dcd f03d 8e0b 903d 2349 df3d 8a1c b8bd
00000380: f315 efbd 73ed a0bc dd0f b4bd a894 a0bc
00000390: a7a4 35bc c998 f13c 10b6 92bd f8df bc3d
000003a0: e2ab 203d ee92 29bd 0464 95bd e1ce 71bd
000003b0: 993e 4db7 2ba0 0fbd b689 8fbd f72f f7bc
000003c0: 84e6 1e3d d932 38bd b935 2b3c 4133 48bc
000003d0: de15 f2bb b5a6 04be 6f71 1ebc 3956 cbbd
000003e0: 90c0 8b3d e7a4 4ebd 28e8 3dbc 01d7 be3d
000003f0: 4609 34bd 0d42 9bbd aa54 e3bd fe55 acbd

mps.message_proj1.bias f4 [32]
0.01769806 0.028437795 0.03435126 0.04440759 0.012632819 -0.07352302 0.058411907 -0.13915104
-0.11546237 -0.092008695 -0.065460235 -0.03985251 -0.12528446 0.010585852 -0.07448691 -0.14281268
-0.035954043 -0.07903304 -0.070122175 0.051831078 -0.12921669 -0.10173106 -0.101371996 -0.12705688
0.03155941 -0.03449788 -0.0433567 -0.08009569 -0.093527324 -0.033933826 0.08320409 -0.074502654
00000000: 86fb 903c 61f6 e83c e8b3 0c3d bce4 353d
00000010: e2f9 4e3c 3d93 96bd 5341 6f3d 9c7d 0ebe
00000020: 8977 ecbd 0e6f bcbd 0410 86bd 633c 23bd
00000030: 924a 00be 4870 2d3c 988c 98bd 7d3d 12be
00000040: 8c44 13bd 13dc a1bd 379c 8fbd d34c 543d
00000050: 6151 04be 6058 d0bd 1f9c cfbd 331b 02be
00000060: 7144 013d a64d 0dbd cc96 31bd 3609 a4bd
00000070: 418b bfbd 32fe 0abd e866 aa3d d994 98bd

fc.weight f4 [1, 32]
-0.086563624 0.013878447 0.04619835 0.00063680514 -0.023721434 -0.06485991 -0.03386813 0.023682443
-0.0025096836 0.003534798 -0.0439713 -0.0025453875 0.003298645 0.00021812745 0.009969956 -0.0027285418
0.047419433 0.0086777145 0.0038052178 -0.03241301 0.04832464 -0.020933963 0.015438296 0.0011336386
0.020622753 -0.00079556 -0.00031304767 0.015251016 -0.023607189 0.029116703 0.0025404042 -5.7536454e-05
00000000: 4548 b1bd 6d62 633c 7b3a 3d3d 45ef 263a
00000010: 7453 c2bc 46d5 84bd 4fb9 0abd af01 c23c
00000020: 8179 24bb 12a8 673b 401b 34bd 84d0 26bb
00000030: 142e 583b 24b9 6439 0759 233c 56d1 32bb
00000040: e13a 423d f92c 0e3c f660 793b 81c3 04bd
00000050: 0ff0 453d b47d abbc e8f0 7c3c 9996 943a
00000060: 0cf1 a83c 218d 50ba 8c20 a4b9 66df 793c
00000070: dd63 c1bc 2786 ee3c e97c 263b 4c53 71b8
